Generators/sonar_nn_model.pth (torch, 10120 bytes, 3 tensors)

fc1.weight f4 [32, 60]
0.17663246 0.11706371 0.24361421 0.17561972 0.038220942 -0.093799815 -0.027075278 0.022386461
0.08313004 0.32151496 0.3688161 0.18258077 0.21721917 -0.03816363 0.02265651 -0.13919489
-0.14054625 -0.11513766 0.015639722 0.11074786 0.20248811 0.09337991 0.08109871 0.13501373
0.044618033 -0.09210948 -0.032044146 -0.047851887 0.033992514 -0.057392556 -0.041556783 0.03629792
-0.0033645562 -0.18627435 -0.18065621 -0.14819553 -0.08354217 -0.05499299 0.15501563 -0.11411487
0.20323859 0.24924774 0.28658712 0.16246149 0.36848614 0.3131401 0.20775059 0.1815796
0.30223867 0.12975466 0.37293294 0.395136 0.34108856 0.1959374 0.020069795 0.29447255
-0.13935673 0.34551176 0.22566468 0.082359284 0.28894487 0.21239522 -0.018241787 0.32916582
0.04570177 -0.067165725 -0.17159162 -0.037881214 0.14452113 0.32227302 0.13026655 0.29948917
0.1784198 -0.043443773 -0.19632582 0.0021238215 -0.123475164 -0.14858793 0.08895974 0.046868447
0.20748296 0.04017117 0.1383393 -0.031101413 -0.13252768 -0.10919411 0.07172297 0.0552324
0.042359386 0.10928925 -0.1717252 0.1280826 -0.085069746 0.003849752 -0.015878584 -0.17797913
-0.21744546 0.03806784 0.072895646 0.048228446 0.14150925 0.20421934 0.25198516 0.08640932
0.18273696 0.3214436 0.21356907 0.21760102 0.28964555 0.14793561 0.34230453 0.26337737
0.15647063 0.2617816 0.042877253 0.27931792 -0.034830507 0.19117291 0.2203105 0.09342798
-0.111018084 -0.06423213 0.060979202 -0.06555511 -0.07788585 0.06137355 -0.115576915 0.055492558
-0.018480835 -0.07153999 -0.08747896 0.11568413 -0.117854714 -0.00079866644 0.10312805 0.05300998
0.02214167 0.032534428 0.055869397 -0.015218474 -0.12284524 -0.080637306 -0.051486325 -0.099584475
-0.10146656 0.04505952 -0.0029762755 0.0152205955 -0.06631509 -0.056961104 -0.10904701 0.011082431
0.022341268 0.04096947 -0.1197615 -0.029734135 -0.117422104 0.08308809 0.090465814 -0.072715774
-0.109223105 0.10368838 0.034081113 -0.008527044 0.05126339 0.08741105 0.022562316 -0.12958053
-0.04893466 0.106408946 0.034238476 -0.066012055 0.084853604 0.02112025 0.11389989 -0.0427891
0.013990661 -0.010615078 0.10219447 -0.01787145 0.27401727 0.14466952 0.009297308 0.35549092
0.04252616 0.09068011 -0.039287537 0.062355287 0.17502423 0.25234342 0.123835325 0.14005628
0.0021840697 -0.14259051 0.012615797 -0.13295147 -0.07881826 0.025747042 0.09582767 0.13369447
0.15670708 0.03098158 -0.06486652 -0.0090274485 -0.006082638 0.03169925 -0.16369815 0.13103153
0.10402633 0.09598013 -0.17779846 0.11361977 -0.065891415 -0.0191703 -0.25309125 -0.06754333
-0.038921323 0.08817496 -0.011423981 -0.1389916 0.09478167 0.19237487 0.22082 0.19410138
0.14753543 0.10233505 0.23884849 0.14370346 0.28598365 0.1844722 0.2552099 0.33602697
0.26675674 0.25525865 -0.112380534 0.177507 0.04368578 0.08861543 0.1863925 0.070755124
-0.1244897 0.009993073 -0.13736211 -0.05796556 -0.12828813 -0.13001397 -0.10623254 0.09578338
-0.070203006 0.04359697 0.05073806 0.10221606 -0.1324385 -0.01890552 0.060849573 -0.11882905
00000000: 24df 343e 19bf ef3d 0176 793e a8d5 333e
00000010: 908d 1c3d 1e1a c0bd f9cc ddbc d063 b73c
00000020: 1540 aa3d 9c9d a43e 77d5 bc3e 74f6 3a3e
00000030: b46e 5e3e 7751 1cbd 259a b93c 1b89 0ebe
00000040: 5beb 0fbe 4bcd ebbd e01e 803c c6cf e23d
00000050: 0b59 4f3e f73d bf3d 1517 a63d 0a41 0a3e
00000060: 66c1 363d e5a3 bcbd b940 03bd 5700 44bd
00000070: bc3b 0b3d 7514 6bbd 7237 2abd 21ad 143d
00000080: e37f 5cbb b4be 3ebe f1fd 38be 92c0 17be
00000090: 2818 abbd 5440 61bd 6bbc 1e3e 0fb5 e9bd
000000a0: c71d 503e cd3a 7f3e 8cbb 923e 4e5c 263e
000000b0: 37aa bc3e e653 a03e 92bc 543e 01f0 393e
000000c0: 07bf 9a3e 68de 043e 11f1 be3e 444f ca3e
000000d0: 29a3 ae3e d0a3 483e 6969 a43c 1bc5 963e
000000e0: 88b3 0ebe ebe6 b03e a414 673e fcab a83d
000000f0: 95f0 933e 227e 593e cd6f 95bc 6c88 a83e
00000100: c731 3b3d 2f8e 89bd b7b5 2fbe 5529 1bbd
00000110: 59fd 133e f800 a53e 9864 053e a556 993e
00000120: aeb3 363e 19f2 31bd a309 49be d02f 0b3b
00000130: 8ce0 fcbd 6f27 18be 8630 b63d 21f9 3f3d
00000140: 6a76 543e 868a 243d d1a8 0d3e 64c8 febc
00000150: 56b5 07be 29a1 dfbd 7ee3 923d 5e3b 623d
00000160: 0981 2d3d 0bd3 df3d bbd8 2fbe 1628 033e
00000170: 0c39 aebd 1f4c 7c3b ce13 82bc 2940 36be
00000180: 06aa 5ebe 06ed 1b3d 504a 953d 318b 453d
00000190: cde7 103e e01e 513e 3304 813e 5ff7 b03d
000001a0: 661f 3b3e 4194 a43e dab1 5a3e cdd2 5e3e
000001b0: 6c4c 943e 6f7c 173e 8a42 af3e 66d9 863e
000001c0: d639 203e 3d08 863e 0fa0 2f3d c202 8f3e
000001d0: 6faa 0ebd d5c2 433e 1399 613e 2b57 bf3d
000001e0: 735d e3bd 238c 83bd 54c5 793d c241 86bd
000001f0: 9e82 9fbd d562 7b3d 97b3 ecbd 2a4c 633d
00000200: 1f65 97bc 8f83 92bd 2b28 b3bd cdeb ec3d
00000210: d05d f1bd 995d 51ba cd34 d33d fe20 593d
00000220: 7362 b53c d242 053d 4fd7 643d e856 79bc
00000230: 4996 fbbd 2c25 a5bd 53e3 52bd f2f2 cbbd
00000240: b3cd cfbd 5590 383d 9e0d 43bb ce5f 793c
00000250: 35d0 87bd 0c50 69bd 0a54 dfbd 1693 353c
00000260: 0905 b73c 9acf 273d 8445 f5bd 0095 f3bc
00000270: 007b f0bd 172a aa3d 2446 b93d 02ec 94bd
00000280: 5db0 dfbd 935a d43d a398 0b3d 04b5 0bbc
00000290: 8ff9 513d 9104 b33d 9bd4 b83c c2b0 04be
000002a0: b66f 48bd efec d93d a53d 0c3d 5431 87bd
000002b0: bac7 ad3d 6004 ad3c 5844 e93d a043 2fbd
000002c0: 1639 653c ddea 2dbc 564b d13d 2667 92bc
000002d0: fe4b 8c3e 3f24 143e bc53 183c e802 b63e
000002e0: e92f 2e3d 7eb6 b93d f8eb 20bd 4268 7f3d
000002f0: 8d39 333e 2833 813e 609d fd3d ea6a 0f3e
00000300: 9c22 0f3b 3f03 12be 7db2 4e3c 6e24 08be
00000310: 786b a1bd 76eb d23c 4c41 c43d 34e7 083e
00000320: d277 203e 15cd fd3c bdd8 84bd dde7 13bc
00000330: de50 c7bb 13d7 013d 7da0 27be 212d 063e
00000340: c20b d53d 3b91 c43d cd10 36be 7bb1 e83d
00000350: 14f2 86bd 080b 9dbc 2d95 81be 2854 8abd
00000360: f76b 1fbd 1395 b43d a62b 3bbc d053 0ebe
00000370: e41c c23d ebfd 443e a31e 623e 83c2 463e
00000380: 8713 173e 0a95 d13d b394 743e 0027 133e
00000390: 736c 923e 48e6 3c3e dfaa 823e ba0b ac3e
000003a0: 5794 883e 43b1 823e c427 e6bd 65c4 353e
000003b0: dcef 323d 027c b53d addd 3e3e 10e8 903d
000003c0: 75f4 febd fcb9 233c a7a8 0cbe 4c6d 6dbd
000003d0: f75d 03be 6222 05be 7290 d9bd 142a c43d
000003e0: 98c6 8fbd bd92 323d b6d2 4f3d a756 d13d
000003f0: f59d 07be c0df 9abc 673d 793d a55c f3bd

fc1.bias f4 [32]
-0.045016136 -0.12206468 -0.036283374 -0.09262802 -0.03162111 0.14888206 -0.12537546 0.07804252
0.058688633 -0.10348924 0.13166781 0.10308209 -0.090463996 -0.06435017 -0.027999382 0.120491095
-0.12629728 0.086600356 -0.15162045 -0.13185322 -0.14516391 0.056759894 -0.13069597 0.061554532
0.022305667 -0.040836237 0.05253675 -0.089770705 0.12837563 0.010921748 0.020116597 -0.00097290863
00000000: d762 38bd 0cfd f9bd e09d 14bd c2b3 bdbd
00000010: 2385 01bd 8a74 183e 6d62 00be c2d4 9f3d
00000020: 7e63 703d 2bf2 d3bd edd3 063e b41c d33d
00000030: 3045 b9bd 06ca 83bd f65e e5bc 09c4 f63d
00000040: 1354 01be 875b b13d 6442 1bbe 8804 07be
00000050: d9a5 14be 107d 683d 2ad5 05be 9b20 7c3d
00000060: 60ba b63c e643 27bd c630 573d b4d9 b7bd
00000070: e774 033e 22f1 323c 90cb a43c cb0a 7fba

fc2.weight f4 [1, 32]
-0.25948003 -0.3024853 -0.10131347 -0.17835265 -0.044316396 0.2882439 0.122583255 0.4401904
-0.34282428 -0.0699515 0.43428853 -0.10410345 -0.3167698 -0.36619684 -0.35232446 0.34287748
0.08830489 0.39491764 -0.30161598 -0.45877862 -0.34594172 0.0934981 -0.15949465 -0.2439578
-0.23815306 0.065312 0.29350397 0.053088266 0.27511737 0.33149254 0.09506343 -0.12808473
00000000: 91da 84be 5adf 9abe 707d cfbd 14a2 36be
00000010: 1c85 35bd b494 933e ee0c fb3d a360 e13e
00000020: aa86 afbe bb42 8fbd 115b de3e 3134 d5bd
00000030: a72f a2be 277e bbbe df63 b4be a38d af3e
00000040: 32d9 b43d a532 ca3e 696d 9abe 08e5 eabe
00000050: 461f b1be ef7b bf3d 9152 23be 13d0 79be
00000060: 65de 73be 4cc2 853d 2746 963e 1573 593d
00000070: 2fdc 8c3e 64b9 a93e 9eb0 c23d a528 03be
